logs/hyperspecae_final.pt (torch, 79310 bytes, 38 tensors)

encoder.hidden_1.weight f4 [27, 156]
00000000: 2fef f2be 38b6 853e 7ba4 8d3e 0e0f ef3e
00000010: faf3 ea3e cb28 c83e 32f1 963e fc41 493e
00000020: 71c8 9e3e 68be b23d e924 d73a 8638 e5bd
00000030: e207 763d 7bb2 ef3d b519 963e 97f5 af3e
00000040: 00cc 043e a872 283d a5ad 363e c532 703e
00000050: a471 2839 bf21 363d abc0 6ebd 00b4 3e3e
00000060: ab16 0c3e a4c7 2e3e cbf1 c13d 6da1 7f3d
00000070: 6da5 9e3d 90ea 953d a3bd 803d 4656 933c
00000080: 3f57 b33c 4dcc d8bc fca9 d1bc 6564 ef3d
00000090: e1fb 1a3d 8a86 163e 7d53 04ba 2f0e 333e
000000a0: 6ea9 8a3d a197 483d f112 63bc 3e9c 38be
000000b0: 7b7a debd 6a1a debd aaaf f7bd 12f7 3ebe
000000c0: 0f39 33be e915 68be 2eca f2bd d8d2 a5bd
000000d0: ab87 f9bd 2468 cb39 2870 3b3d 266a 403d
000000e0: b56f 9e3c 6c7b 443e ed7c bf3e de2b 943e
000000f0: 513f 873e 2ccc ce3e acfb 9b3e f310 ad3d
00000100: 954b c6bc bc2b ae3c 8612 573e 5a0a adbd
00000110: 38e0 eabd e925 88be 300e 57be 689c 54be
00000120: ac4e 9cbe 1c58 97be 2152 f4be 6e8e eebe
00000130: 31fb 7dbe 7e05 7dbe 2035 d9be 2977 b5be
00000140: 8334 78be 97ab 99be f8b8 b9be 20db 6fbe
00000150: 3078 8fbe 1e53 83be 337c d2be a8da 81be
00000160: 9809 75be eeb4 79be e120 9dbe 7989 c1be
00000170: ab72 8fbe a8e9 9cbe 8692 fbbe 65e5 85be
00000180: dc42 7bbe f94d 72be 147a aabe 6744 8ebe
00000190: 6e36 c7be 388a 96be 5284 b5be d9c5 b5be
000001a0: 6a37 acbe f2a8 3bbe 5fb7 05be 5d77 1ebe
000001b0: e83e 10bd d8f9 12be a610 2b3c ca48 02bd
000001c0: eb44 f2bc 329e 06be 6b37 36be f098 69be
000001d0: e013 8fbd 02a3 7ebe cc80 11be 0845 4bbe
000001e0: 2c15 61be 2f7d 0cbe ff7e babd 0e8e af3c
000001f0: 995d e1bd ba50 0abe 1b39 edbc 9ac3 d1bd
00000200: a308 00be b45d 34bd 5bb2 3abd 311c febd
00000210: 4222 bfbd 426e acbd c23e 91bd af71 16be
00000220: 80e9 a3bd e76d e8bd 9957 67bd 07ec 00be
00000230: 3523 fbbd d8ee dcbd 871b 27bd d7f5 e5bc
00000240: d0e8 28be efdd c6bd 164e 58be 5b3f 363a
00000250: af50 b7bd cc0b eebd 61ea d4bd 1f38 f13c
00000260: 3020 d13c 8312 ebbd 513e c1bc 568b 35be
00000270: 74f3 04bf f33c 0b3e f638 bfbd b8bd f6bd
00000280: 1785 94be 3179 7cbe 41b6 38be 8d03 053e
00000290: 3aaa 9ebd 8c2c 08bf 7e11 d5be 35b4 9bbe
000002a0: 484d f8bd 42a7 36be 3ce2 18be 0a06 0cbe
000002b0: 661b 0fbe 232c 07be 1a0b 18be dce7 9fbd
000002c0: 137e 80be bb13 81be b82e d2be 81c8 6cbe
000002d0: 459f cebd ff19 79be 470a 61be 57f1 53bd
000002e0: 6502 bc3d 20e3 6cba 88dc f63d 9e97 7b3b
000002f0: c4aa ae39 63d2 28be c3c3 a13d ab93 053e
00000300: a6ef 21be c833 c7bb 072b 3dbe 3b65 43bd
00000310: 9dd9 353d c209 353c 6327 ddbd 0c95 01be
00000320: 296c c6bd b598 8abd 4abd 51be b29d 92be
00000330: 49f6 fcbd 644f 43be 2f01 52bd 4e3e a1bd
00000340: b4b4 dabd f094 e73c 9e35 58bd 5924 253d
00000350: 66a6 01be e5ff 0b3e 62a6 963e c608 943e
00000360: aa3a 643e e41c b53e 1262 973e 55d6 b83d
00000370: 10d3 703d 45fa f93d 8109 893e c5fd 533d
00000380: ef74 493e 704f 9d3b b988 0c3d c811 6e3c
00000390: 9c98 863d b7d7 c43d 11b5 84bd c3e1 0e3d
000003a0: c183 a83e 4048 773e ebac 313e 046e 973d
000003b0: 0112 2e3e 8c4a cd3d 715b 0cbc cdf3 cbbd
000003c0: 731b 3fbe 7a43 92bd a7dc 5bbe 35b3 23bc
000003d0: c9fd 9f3d 04cb 9c3d 9fb1 c53b 7cdf fcbd
000003e0: e233 25be b68e 35be 026e 47bd e961 973d
000003f0: 0c0f c63d cf47 d23d 4b53 a63d 4663 8abe
-0.47448108 0.26115584 0.2766455 0.46691173 0.45889264 0.39093623 0.29480892 0.19654077
0.310123 0.08727723 0.0016414198 -0.111924216 0.06006611 0.11703964 0.29316488 0.34367058
0.12968445 0.04112497 0.17839678 0.23456867 0.00016064063 0.044465777 -0.05828921 0.18623352
0.13680522 0.17068344 0.094699465 0.062409807 0.07746396 0.0732013 0.0628617 0.017985474
0.021892188 -0.026464606 -0.02559375 0.116890706 0.037837867 0.1469976 -0.0005047841 0.1748588
0.067705974 0.04897273 -0.013859496 -0.18028352 -0.10863205 -0.10844882 -0.12094052 -0.18648937
-0.17502235 -0.22664608 -0.11854969 -0.08096856 -0.1218408 0.00038796768 0.045761257 0.04697623
0.019340375 0.19187707 0.37399998 0.28939718 0.26415494 0.40390146 0.30465448 0.084504984
-0.024205962 0.021261089 0.2100316 -0.0844924 -0.114685476 -0.26591423 -0.21001506 -0.20762789
-0.30528772 -0.2955941 -0.4771891 -0.4659304 -0.24802853 -0.24709126 -0.42423344 -0.35442474
-0.24238782 -0.30013725 -0.36273932 -0.23423433 -0.28021383 -0.2564935 -0.4111038 -0.25362134
-0.23929441 -0.24385425 -0.30689147 -0.37800196 -0.28017172 -0.30647016 -0.49135226 -0.26151577
-0.24537224 -0.23662557 -0.33296263 -0.27786562 -0.38908714 -0.29402328 -0.35452515 -0.35502508
-0.33636028 -0.18326166 -0.13058232 -0.15475221 -0.035216242 -0.1435312 0.010440981 -0.0318077
-0.029573878 -0.13146284 -0.17794578 -0.22812247 -0.06986213 -0.2486687 -0.14209288 -0.19850552
-0.21980733 -0.13719629 -0.09106254 0.021430042 -0.110041805 -0.13507357 -0.028957894 -0.10242386
-0.12503295 -0.044034675 -0.04558025 -0.12407721 -0.09332706 -0.084194675 -0.07092048 -0.14691804
-0.08003521 -0.11349087 -0.056480024 -0.12590037 -0.122625746 -0.10787743 -0.040797736 -0.028071327
-0.16495061 -0.09710299 -0.21123537 0.000695219 -0.08950936 -0.11623344 -0.10396267 0.029445706
0.025528044 -0.1147814 -0.023589285 -0.17728934 -0.5193398 0.13597469 -0.09337036 -0.12047905
-0.2900779 -0.24655606 -0.18038274 0.12989636 -0.07747312 -0.53192973 -0.41614908 -0.30410925
-0.12124115 -0.17837241 -0.14930052 -0.13674179 -0.13975295 -0.1320043 -0.14847985 -0.078078955
-0.25096187 -0.25210366 -0.4105127 -0.23123361 -0.10088972 -0.24326323 -0.21976577 -0.05174383
0.09180144 -0.000903653 0.12053782 0.0038389931 0.00033315097 -0.16486506 0.07898667 0.13044612
-0.15814075 -0.006079171 -0.18473445 -0.047703963 0.044396985 0.01104969 -0.10798528 -0.12654513
-0.09688599 -0.06767408 -0.20482364 -0.28635937 -0.12351663 -0.19073254 -0.05127066 -0.07873212
-0.10678998 0.028269261 -0.05278551 0.040317867 -0.12661132 0.13671835 0.29423815 0.28912944
0.22288004 0.35373604 0.2956701 0.090252556 0.058795035 0.12205938 0.26765063 0.051755685
0.19673513 0.0048007295 0.034310076 0.014530607 0.06572077 0.09611457 -0.06479848 0.034883272
0.3291302 0.24148655 0.17351119 0.07394031 0.16999055 0.10023984 -0.008566723 -0.09958611
-0.18662815 -0.071417764 -0.21470891 -0.009991457 0.078120776 0.0765591 0.006033137 -0.12347314
-0.16133073 -0.17730221 -0.048688896 0.07391722 0.09670839 0.10267603 0.081213556 -0.27028865

encoder.hidden_1.bias f4 [27]
00000000: 4bbb 6dbc bb47 5c3e bf2d 03bf 15e1 c8bd
00000010: deec f43e 9fb4 193f 4530 ccbd 780a b13e
00000020: 996b bb3d eb0e 16bd 7fd3 213e c497 c8bd
00000030: c1db 97be 5438 5bbe 23f0 113f efc6 0cbf
00000040: 2c30 2e3f 58a8 aebd 05c5 6a3d b0af 74be
00000050: c62c ee3c b0dc 0d3e 313e 1e3f af81 e9bd
00000060: 6c6e 3f3e eb9d e43d 5d82 4b3e
-0.014509986 0.21511738 -0.5124168 -0.09808556 0.47836965 0.6004123 -0.09970144 0.345783
0.09151382 -0.03663532 0.15803336 -0.09794572 -0.29659846 -0.21408206 0.57007045 -0.5499105
0.68042254 -0.08528203 0.0573168 -0.23895144 0.029074084 0.13853717 0.61813647 -0.11401688
0.18694466 0.11162933 0.19873948

encoder.hidden_2.weight f4 [18, 27]
00000000: 0a4c 023d a3da 423b 69ce c43b f5de b03e
00000010: 4371 fc3b cd6a 573e a640 84be d097 323e
00000020: cddb 0ebe 2ef9 ed3d 2b4b 3cbf f9cb 063d
00000030: 2e74 9ebd 19e2 2e3d 604b 8abd cd9d a63e
00000040: af03 7abe c78c e43c ee81 cd3c b1ff 52be
00000050: a7bf 59bd 4db6 43bd adcf ee3c 38ec 55be
00000060: 9c54 473d 5934 35bd 830d 533d 06ef 23bd
00000070: 28ca 873c f105 81bc c641 073e bd67 8b3d
00000080: fdbe c73e 9910 debe 9944 68be 9296 ab3d
00000090: 61b9 67bc cbbe cabc c4f0 0dbc fc51 efbd
000000a0: a43c f9bd e2ea d5bd 513d 2cbe 016c 53bf
000000b0: 7716 80bc caa0 fe3d 80f9 473b aec9 0b3e
000000c0: 6b34 02be 5b8b 283e 280f 653e a578 97be
000000d0: 0caf 6cbe e611 3f3e ef00 f13b e30a 973e
000000e0: aa75 f4bb 0821 57bd bca3 cfbd da3c 633e
000000f0: bfc4 83be 1945 7bbd 6eca aa3d 57e2 c93d
00000100: 242d 41bd 4cd7 003e f23f 803e d722 ec3d
00000110: 9643 1cbf 15bb d0bb 5e9d 283f 4082 533e
00000120: 69ae a93e ef7c c4bd 8584 7f38 04a9 c63d
00000130: a25d 8e3e e370 0cbe 1f95 dfbe 9030 a2bd
00000140: b2df ac3e a3da c33c 7ae1 66bd fb28 f93d
00000150: c4f6 e63d c051 6e3e 6766 ca3d de37 4cbc
00000160: 0e39 82bd 3f4d 163e d366 1abe bd3f 6bbe
00000170: e139 29be 1367 57be 5f27 a33d 4fc0 50be
00000180: 45e7 403e 764c d8be 3640 0a3e 296d 8dbc
00000190: 8ad9 923d 995e de3d 3fdc 973e 40d5 233f
000001a0: 6919 b23e f388 d7be 640e 883e d92d af3d
000001b0: c6f1 783f 258a fd3e c8b3 363f dfab cd3e
000001c0: 2026 5e3d 6a52 073e 7511 b63e 9bf0 98be
000001d0: 4358 603f 6e1a b03e d9fb b23e b6e4 023f
000001e0: 0a4a 233f c828 123f cc8b d8bc ec72 473f
000001f0: e4fa c9be 79fa 013f c6a3 613f 52b2 1a3f
00000200: 5de1 5d3e d5d7 833f d3f5 943e bb1a 003f
00000210: ec57 183e c09e d43e 8c68 803f 9d5a 2b3e
00000220: d4a1 b3bd 3c1a 053e f161 483c 4843 293d
00000230: 7b63 853c 754a 8e3b abe2 d73d 9dba 6c3d
00000240: 7e7a 9bbd f168 12bf 8754 27bd 84ee 7abd
00000250: aa92 a43b bcf9 843d 9225 aa3c a1de 1d3e
00000260: 82a7 e13d a428 3bbe ba61 a6bd 6fba d2bd
00000270: 686c b9bd 93c7 3bbd 876d 903d 2d03 763d
00000280: 6ba2 ca3e 1ff2 003d 87f3 2ebc 5306 553e
00000290: 2afc d53d e771 253c 4832 b8be 0426 353e
000002a0: b63b ccbc 2249 dfbe 3fdc c83c ff7d 1d3e
000002b0: 7ac4 373e a292 8c3d 2787 103e bffb 553e
000002c0: fe86 adbd 2a9d 5e3e 23ae 3bbd 0025 fb3c
000002d0: 96e9 433e dcea 50bd 76f8 65be 0db9 06be
000002e0: 54f6 473c 83ca 5ebd a9ae a5be 6263 e0be
000002f0: 89c4 a73d 9c38 adbe e81a eebd e71b 8ebe
00000300: f659 91be 6501 f63d cf06 c0be 76e7 ad3d
00000310: 4e8d 743e 98fd 7fbe 7d93 84be 75e0 80be
00000320: 3f9d 55be 1944 d8be 7213 9bbe 90fc 78be
00000330: f56d c7be 3e0b ef3e 77d2 b0be 3ec8 c0be
00000340: 8b24 bdbd 6bc4 cfbd 4ca6 71be 40d0 5cbc
00000350: e680 06be 32ca 0b3d 27de 9cbd 8740 efbe
00000360: 86d3 d53e 2080 163d 1010 763d d225 ecbd
00000370: 1a4d 163e a555 c83c e2a8 6ebe 643c 2cbe
00000380: 6ae4 bebd f4bb 1d3e 420d 8c3e bc69 123e
00000390: 5715 1fbd 0619 1e3e d3d2 b03d f8c7 cf3e
000003a0: 92ee 5abf 5592 073e f82b 9c3e e131 993e
000003b0: 8ab6 d23d 8dc7 2e3e 4550 883d 06a0 84bd
000003c0: 7664 f43d 87d0 1abd 2594 763e b707 853f
000003d0: 8a96 f83e e07b b43e da41 8e3d 6f31 44be
000003e0: 70bb a63e 15c4 24be e733 7dbd ba2e 3c3f
000003f0: 63f6 bf3e 8ee7 a83e 37b9 083f 19c1 463f
0.031810798 0.0029732368 0.0060060513 0.34545103 0.0077039315 0.21036835 -0.25830573 0.17440724
-0.13951035 0.11619793 -0.735522 0.032909367 -0.07737003 0.042696092 -0.06752658 0.32542267
-0.24415468 0.02789916 0.02508637 -0.20605351 -0.05316129 -0.047781277 0.029151762 -0.20890892
0.048664674 -0.044239376 0.051526558 -0.040022872 0.016575888 -0.015749903 0.13208684 0.06806896
0.390129 -0.43372038 -0.22682418 0.083783284 -0.014143319 -0.02474918 -0.00866336 -0.11685559
-0.121697694 -0.10445191 -0.16820265 -0.82586676 -0.015635712 0.12433012 0.0030513704 0.13651153
-0.12715308 0.1645941 0.22369063 -0.29584232 -0.2311365 0.18659171 0.0073548476 0.29500493
-0.0074603157 -0.052521735 -0.10138652 0.22191182 -0.25736043 -0.061345194 0.08339392 0.09857624
-0.04716219 0.12582129 0.25048786 0.11530083 -0.6104063 -0.006369958 0.65865123 0.20655155
0.33140877 -0.09594142 6.0920156e-05 0.09700206 0.2780581 -0.13714938 -0.43668458 -0.07919419
0.33764416 0.023907965 -0.056367375 0.121660195 0.112775356 0.23273373 0.09882813 -0.012464492
-0.063585386 0.14677905 -0.15078287 -0.22973533 -0.16525985 -0.21035413 0.07966494 -0.2038586
0.18838222 -0.42245835 0.13501057 -0.017263966 0.071703985 0.10857887 0.29660222 0.6399727
0.3478501 -0.4209667 0.2657348 0.085536666 0.97243917 0.49519458 0.71368074 0.4017019
0.054235578 0.13215032 0.35560194 -0.29871067 0.87634677 0.34395164 0.3495777 0.51130235
0.6378485 0.5709348 -0.026433848 0.7790973 -0.39449227 0.50772816 0.88140523 0.60428345
0.21668 1.0300242 0.290938 0.5004079 0.1487729 0.41527367 1.0031905 0.16733785
-0.08771101 0.12998289 0.012230382 0.04132393 0.016282788 0.004342372 0.1054128 0.057795156
-0.07591723 -0.5719138 -0.040852096 -0.061262622 0.0050223665 0.064929456 0.020769868 0.15416957
0.11018278 -0.18277222 -0.081241086 -0.10289466 -0.0905388 -0.045844626 0.07052141 0.060061622
0.3957704 0.031480905 -0.010678179 0.20803194 0.10448487 0.010097957 -0.35975862 0.17690283
-0.024930816 -0.43610483 0.024519084 0.15380095 0.17946044 0.068639055 0.14114057 0.20896815
-0.08473013 0.21739641 -0.045820367 0.030657291 0.19132075 -0.05100523 -0.22458062 -0.13156529
0.012204725 -0.05439235 -0.32359818 -0.43825823 0.08191783 -0.33832252 -0.11626226 -0.27755663
-0.28388947 0.12011985 -0.37505195 0.08491413 0.23882028 -0.24999082 -0.25893775 -0.25171247
-0.20860766 -0.42239454 -0.30288273 -0.24315095 -0.38951078 0.46688265 -0.34535572 -0.37652773
-0.09235486 -0.10144886 -0.23598593 -0.013477385 -0.13135108 0.034128375 -0.0765956 -0.46728918
0.41762942 0.036743283 0.060073912 -0.11530651 0.1467785 0.024454901 -0.23306611 -0.16819912
-0.0932091 0.1540373 0.27353865 0.14298147 -0.03883871 0.15439233 0.086339615 0.40582252
-0.8552028 0.13239415 0.30502295 0.29920867 0.10288723 0.1706831 0.06655935 -0.064758345
0.11933224 -0.037796523 0.2407995 1.0392979 0.48552352 0.3525076 0.06946154 -0.19159482
0.32564878 -0.16090424 -0.061817076 0.735088 0.37492666 0.32989162 0.53407615 0.77638394

encoder.hidden_2.bias f4 [18]
00000000: f944 a43e 4fee 08bd 2677 963f ea0a 823e
00000010: f41c 7cbe 93d2 813f 3a05 2f3e c629 823f
00000020: eccb d13e f2de 15be a3d1 dabe d880 c7be
00000030: 8f3b abbe 75ff f6be b93a d3be 6b1c af3e
00000040: 35b1 063f 5f33 35be
0.32083872 -0.033430394 1.1755111 0.25398952 -0.2462042 1.0142387 0.17091838 1.0168998
0.40975893 -0.14635828 -0.42738065 -0.38965487 -0.33443877 -0.48241773 -0.4125574 0.3420137
0.52614146 -0.17695378

encoder.hidden_3.weight f4 [9, 18]
00000000: 3c97 5cbe de0b 15be e201 b63e fbb3 493f
00000010: d90d 6bbf cc45 a73e 3630 c8be 2536 873e
00000020: 755f 4dbf 2c17 26bf 15d4 0dbd afe6 513e
00000030: babc 0b3f 1b17 9b3d 4075 30be 5892 91be
00000040: 0be1 bdbe d7d3 96be d5e8 b1be 5e87 493f
00000050: 38f4 773e 7a50 3c3d 7b51 0140 bcbe 41be
00000060: ccab d6bd aac6 97be 9d72 d2be 56dc a83f
00000070: 8457 55be 135e 003e bead bbbd 8cab ed3e
00000080: ee56 bf3e 6e30 1b3f 2f1b 2bbf ae3d 123f
00000090: 0b7c abbe 967c 2ebd f398 bc3e a578 333f
000000a0: ef39 c3be 2cb0 f23c 5e0a 0abf 6bee 583e
000000b0: f4c5 cbbf 34e1 35bf e7a7 9dbe 6bb6 6f3e
000000c0: 3790 5a3f 1423 163f 52c4 5c3e e83b 95be
000000d0: bf57 15bf 6158 e3be 6863 7abb 3dcc 523e
000000e0: 13a0 183f 86fb 3d3e 07ac b4bd c4b1 a9bd
000000f0: 47b1 0ebd a570 143e 6b96 eebe 3198 833e
00000100: 8670 433e 6dee b93e bfdc ad3d 433c 79bc
00000110: a79d 15bc 815c 413f 2e94 293c 275e ccbe
00000120: 06aa 093e 55a5 203e 13d3 5d3e 8c4c a0bd
00000130: fa98 56be 980d 7d3d 7a49 163e e2c9 803e
00000140: 4800 ac3e c90a eebd 9cdd 56bf 047f 37bf
00000150: 464d 8fbe b87d 31be 40c6 f8be aa18 f1bb
00000160: 548b 783d 6d54 04be 9004 ab3d 3ac6 273f
00000170: 9dd8 3bbf ba5a 6fbf 4dfc c63e 4bd4 34bf
00000180: c9da 873e 17cb a3bf c0be 333f 06ab 5dbc
00000190: a878 29be ff82 44be c74a 83bf f891 303e
000001a0: 961f 063f d4c0 00be e97f 1abf 4396 163f
000001b0: 74ab 193d f156 26bd b490 093f fb5d 323e
000001c0: 54a9 02bf 3272 3fbd fe55 8b3e 9c00 833e
000001d0: 48f6 eb3d 707c 97be 4ee2 fb3c c581 2cbd
000001e0: bc86 833d 9381 8d3d 3227 903e 79e0 3bbe
000001f0: fb9b 273d e9ba 913d 33f6 abbd 75a1 c73e
00000200: 5bc6 3cbf 1012 0cbf 3dc0 cc3e 34cb d8be
00000210: 74f3 b53e 40b4 9ebf f46b 013f 3bc1 39bd
00000220: 4ed9 d8bd 40d8 dabd bf1c 80be ac12 9f3d
00000230: e3e6 053f 6f28 95be 1bf4 adbe 1031 693e
00000240: f67d 0fbf 96f2 0bbe 9c91 823e b33a afbc
00000250: 3980 3cbe 82a6 34bf 94cc 46be 1fdd c03d
00000260: 2591 8cbe a12f 733e cf4a d73e 5c6b 233f
00000270: fc19 823e 5b94 283f fc83 303f 794d 953e
00000280: f1f0 ccbe f694 913e
-0.21542066 -0.14555308 0.3554831 0.78790253 -0.91818005 0.32670438 -0.39099282 0.26408496
-0.8022378 -0.6487911 -0.034626085 0.20498155 0.5458485 0.075727664 -0.17232227 -0.28431964
-0.37085757 -0.29458496 -0.3474795 0.7872218 0.24214256 0.045975186 2.0205982 -0.18920416
-0.104819864 -0.29643756 -0.41103068 1.3192241 -0.20834166 0.12535886 -0.09163998 0.46419942
0.3737101 0.6062077 -0.66838354 0.57125366 -0.33493075 -0.042599283 0.3683544 0.70105964
-0.38130137 0.02962502 -0.5392207 0.21184699 -1.5919785 -0.7104676 -0.30792162 0.2340943
0.85376304 0.58647275 0.21559265 -0.29147267 -0.58337015 -0.44403365 -0.0038206223 0.20585723
0.59619254 0.1855298 -0.08821874 -0.08285859 -0.034837034 0.14496095 -0.46599135 0.2570205
0.19085893 0.36314717 0.084893696 -0.015212121 -0.0091318255 0.75531775 0.01035027 -0.39915583
0.13443765 0.15688069 0.2166255 -0.078271 -0.20956793 0.061780542 0.14676467 0.25154024
0.33593965 -0.11623151 -0.839319 -0.71678185 -0.27988642 -0.17333114 -0.48588753 -0.0073576765
0.06067975 -0.12922831 0.083504796 0.65536845 -0.733774 -0.9349781 0.38864365 -0.70636433
0.26534107 -1.2796353 0.70212936 -0.013529545 -0.16549933 -0.19190596 -1.0257195 0.17243183
0.52391946 -0.12573558 -0.60351425 0.5882303 0.037517026 -0.040610258 0.53736424 0.17418663
-0.51039624 -0.046739765 0.27214044 0.25586402 0.11521584 -0.29587126 0.030747559 -0.042115945
0.06422183 0.0690948 0.28154904 -0.18347348 0.04092024 0.071157284 -0.08396568 0.3899037
-0.73740166 -0.5471506 0.39990416 -0.42342532 0.35537302 -1.2398758 0.5055535 -0.045350295
-0.105883226 -0.10685778 -0.25021932 0.07767233 0.5230543 -0.2913241 -0.339753 0.22772622
-0.56051576 -0.13666758 0.25501716 -0.021390295 -0.18408288 -0.7056657 -0.19413978 0.094171755
-0.27454486 0.23748638 0.42049262 0.6383569 0.2541045 0.6585137 0.6895139 0.2916067
-0.40027574 0.2843396

encoder.hidden_3.bias f4 [9]
00000000: b67a 083f fcfd 16bf f61d a5be 5204 903e
00000010: 6cf9 a63e e86f 25be 07f0 083f 0546 cdbe
00000020: eb79 4ebf
0.5331224 -0.589813 -0.3224942 0.28128296 0.3261217 -0.1615597 0.5349125 -0.40092483
-0.8065478

encoder.hidden_4.weight f4 [3, 9]
00000000: 3a0b a53e cef0 ca3e c6e0 2d3f f357 c6bd
00000010: 81a4 433f 5a0e 9dbe e0d3 473e df9f aebe
00000020: 0583 41bf 483f 3c3d 1fe6 01bd b3de a73e
00000030: a70c 003d 9b71 8c3c 5705 4fbf a186 f73c
00000040: d5f9 51bf a3b2 443e e663 653f fe80 5fc0
00000050: 3dad 823e 4eb4 45bf aaaa ad3f 1110 02bf
00000060: 06df c53e b1db 61bd d187 febf
0.32235128 0.39636844 0.679211 -0.09684744 0.7642289 -0.30675012 0.19514418 -0.34106347
-0.75590545 0.045958787 -0.0317136 0.32787094 0.031262066 0.017144015 -0.8086752 0.030215563
-0.8202184 0.1920877 0.8960556 -3.492248 0.25522795 -0.7722825 1.3567708 -0.50805765
0.38646716 -0.055141155 -1.9885198

encoder.hidden_4.bias f4 [3]
00000000: 2649 b2bd c7a2 d03e c8f6 c43e
-0.08705358 0.4074919 0.3846953

encoder.batch_norm.weight f4 [3]
00000000: 34a5 ee40 6b10 af40 a36c 7d40
7.4576664 5.470754 3.9597557

encoder.batch_norm.bias f4 [3]
00000000: 98e4 9bc1 0e36 5ec1 f771 4ac1
-19.486618 -13.888197 -12.652823

encoder.batch_norm.running_mean f4 [3]
00000000: 5383 9a3f 0f2d 163f d45b 2040
1.2071327 0.58662504 2.5056047

encoder.batch_norm.running_var f4 [3]
00000000: 1c72 4f3d 9099 d93a 4bf1 c43d
0.050645933 0.0016601551 0.096163355

decoder.weight f4 [156, 3]
00000000: 2e99 323f e90f 1b3f 27cc 123e 14d2 343f
00000010: e1bc 423f 2967 383e 414c 3b3f 1a41 583f
00000020: 2197 4a3e 6b78 453f 86c0 623f 1e2d 573e
00000030: 100c 4f3f f99b 5f3f c5d2 5a3e fd20 583f
00000040: 581e 6a3f 54d2 683e 169b 613f a421 6d3f
00000050: 257d 713e 76ab 693f c86f 723f af10 7a3e
00000060: 5a73 733f 9fdf 8d3f e9a1 8e3e e5f7 7e3f
00000070: 7087 933f d068 963e cb77 853f ee6d 953f
00000080: 4f2f 9b3e 10bf 8a3f 19ff 893f ec54 963e
00000090: 6171 8d3f 5a61 8d3f 53fb 993e 9962 903f
000000a0: b612 9a3f afab a43e 7f29 923f c6a8 9c3f
000000b0: a706 a73e e1f9 933f f8fd a23f 7675 ab3e
000000c0: 7d60 953f cc20 a53f aa75 ac3e 1a3a 983f
000000d0: e15b ac3f e820 b23e 6788 9b3f af53 b43f
000000e0: 79bf b83e 09d5 9e3f 2f58 bb3f b456 be3e
000000f0: 3fad a13f 54ee bd3f dac7 c03e 2154 a53f
00000100: 7f48 c13f 420d c43e a1d6 a83f 705b c43f
00000110: 0d26 c73e 130d ac3f 8417 ca3f 8058 cb3e
00000120: 82e3 ae3f 3603 ce3f 6022 ce3e 692d b03f
00000130: d04d d13f 7af1 cf3e 8c25 b33f 3b12 db3f
00000140: 4d56 d63e c405 b53f c865 e23f c790 da3e
00000150: da6b b63f 4e5d eb3f c751 df3e 13b2 b43f
00000160: d55d ee3f fbc8 de3e c2a0 b23f ad61 fa3f
00000170: a8c0 e33e 7dd3 af3f 3948 0340 ffbd e83e
00000180: 045a ac3f 824c 0840 8adb ec3e 93bf a83f
00000190: 497d 0a40 24da ed3e d5e4 a43f 77fd 0c40
000001a0: 09af ef3e 69b2 a13f 2d80 1640 0675 fa3e
000001b0: f756 9e3f 3af1 1d40 bad8 013f 62fa 9a3f
000001c0: a0fa 2340 9600 063f 3ce7 983f 7d7a 2640
000001d0: 9c8d 083f bf61 973f 3ae2 2840 5f2b 0b3f
000001e0: 9544 963f 8242 3040 f3b0 103f 9239 963f
000001f0: e9bb 3140 f8f9 123f 3e3d 963f d409 3640
00000200: 3874 163f 8269 973f f98b 3740 e233 183f
00000210: d6bd 983f e0b3 3840 89b3 193f 5d2a 9b3f
00000220: 8c6e 3940 7e23 1b3f 15f1 9d3f 5b17 3840
00000230: 0d60 1b3f c60f a13f 1392 3840 1b53 1c3f
00000240: 04e2 a43f 5841 3a40 0ce7 1d3f d56b a93f
00000250: 3776 3a40 4572 1e3f efe3 ae3f 88d8 3a40
00000260: 0132 1f3f 5b02 b53f 3ada 3740 c109 1e3f
00000270: 6ee7 bb3f fa93 3540 3d4a 1d3f 9ed7 c23f
00000280: d628 3040 3157 1a3f 37c9 c93f aaf5 2a40
00000290: e6ad 173f dcd4 d03f 8ec2 2340 5136 143f
000002a0: f28c d83f 35d0 1d40 9010 123f 0234 e23f
000002b0: c6df 1a40 c05d 123f 521c f03f ea7e 1d40
000002c0: 6f4f 173f cb0e 0040 e967 1f40 ab87 1c3f
000002d0: 3ec7 0840 9233 1d40 c5fe 1f3f 5efa 1140
000002e0: e267 1740 89eb 213f 119f 1b40 f3d0 1240
000002f0: bbf3 243f 8cfd 2340 7dee 0e40 9394 273f
00000300: 8bf0 2a40 bd24 0d40 cb27 2a3f f9cd 3140
00000310: c933 0e40 6285 2d3f c77b 3940 0df3 1040
00000320: c417 323f 8104 3f40 7b9e 1040 69ae 333f
00000330: 0226 4440 4532 1040 ad2a 353f 5780 4a40
00000340: 28d1 1140 1aa2 383f 659e 5140 9b6b 1440
00000350: fdf8 3c3f f865 5840 76ba 1540 9da2 403f
00000360: d9bd 5c40 2fd6 1340 ce27 413f 82a5 6140
00000370: 8112 1240 75de 413f 34ab 6640 c989 1040
00000380: 0184 423f 331d 6b40 bcb5 0e40 502e 423f
00000390: 8a69 7040 5244 0e40 a9e6 423f a211 7540
000003a0: c165 0d40 a608 433f de7f 7b40 82b0 0d40
000003b0: 60e5 443f 76d7 8240 ccd8 0d40 a144 483f
000003c0: 3d9a 8740 9256 0b40 f0a1 493f 558c 8c40
000003d0: 30f8 0740 2a48 4a3f a3c6 8f40 e49d 0340
000003e0: 14e4 483f 1b6e 9340 9f2e 0240 f5b5 493f
000003f0: c6f6 9540 cd40 0240 abae 4a3f fcb5 9740
0.69764984 0.6057115 0.1433569 0.70633054 0.76069456 0.18008102 0.7316323 0.8447434
0.19784214 0.7713687 0.8857502 0.21013305 0.8087778 0.8734737 0.21369465 0.84425336
0.9145255 0.22736484 0.8812727 0.92629457 0.23582895 0.91277254 0.94701815 0.24420427
0.9509789 1.1083869 0.27857903 0.9959701 1.1525707 0.2937684 1.0427183 1.1674173
0.3030953 1.0839558 1.0780975 0.29361665 1.1050225 1.1045334 0.30074558 1.128009
1.203696 0.32162234 1.1418914 1.2239006 0.32622263 1.1560632 1.2733755 0.33488053
1.1670071 1.2900634 0.3368352 1.1892731 1.3465539 0.3479073 1.2151002 1.4088038
0.36083582 1.2408763 1.4636286 0.37175524 1.2630996 1.4838357 0.37652475 1.2916299
1.5100249 0.38291365 1.31905 1.5340405 0.38896218 1.344149 1.5788426 0.39715958
1.366318 1.609473 0.402606 1.3763858 1.6351871 0.4061392 1.3995833 1.7114938
0.41862717 1.4142385 1.7687311 0.4268858 1.4251664 1.8387849 0.4361708 1.4116844
1.8622385 0.4351271 1.3955309 1.9561058 0.44482923 1.3736416 2.0512831 0.45457456
1.346497 2.1296697 0.46261245 1.3183464 2.1638968 0.4645549 1.2882334 2.2029703
0.4681323 1.2632571 2.3515732 0.48917407 1.237029 2.4678483 0.50721323 1.2107661
2.562172 0.52344644 1.1945567 2.601226 0.5334108 1.1826705 2.6388078 0.54363054
1.173968 2.7540593 0.56520003 1.1736319 2.7770941 0.5741267 1.173744 2.8443499
0.58771086 1.1829073 2.8679183 0.59454167 1.1932933 2.8859787 0.60039574 1.2122303
2.8973722 0.6060103 1.2339197 2.8764255 0.60693437 1.2582939 2.8839157 0.6106431
1.2881474 2.9102383 0.61680675 1.3236033 2.9134653 0.6189311 1.366331 2.919466
0.62185675 1.4141344 2.8726945 0.61733633 1.4680002 2.8371568 0.61441404 1.5222051
2.7524924 0.60289294 1.5764531 2.6712441 0.5924972 1.631496 2.5587497 0.5789538
1.6918013 2.465833 0.5705652 1.7672122 2.419908 0.571743 1.8758643 2.4608712
0.5910558 2.000903 2.4907172 0.6114451 2.1371608 2.4562726 0.6249812 2.2809062
2.3657155 0.63250023 2.4315836 2.2940032 0.64434403 2.5623503 2.2333062 0.6546108
2.6709316 2.2053673 0.6646697 2.7781966 2.2219107 0.6778165 2.8981798 2.2648346
0.69567513 2.98465 2.2596729 0.70188004 3.0648198 2.2530682 0.70768243 3.1640832
2.278391 0.7212235 3.2752926 2.3190677 0.73817426 3.3812237 2.3395057 0.7524813
3.4490874 2.3099477 0.7545136 3.5257268 2.2823794 0.7573007 3.6041994 2.2584097
0.7598267 3.6736572 2.2298422 0.7585192 3.7564416 2.22292 0.7613321 3.8292012
2.2093356 0.7618507 3.9296794 2.2138982 0.769125 4.0888014 2.2163572 0.7822972
4.237578 2.1771588 0.7876272 4.3921304 2.1245232 0.79016364 4.4929976 2.0565119
0.7847302 4.6071906 2.0340955 0.7879327 4.6863737 2.0352051 0.7917277 4.740965

decoder.bias f4 [156]
00000000: 1ae3 d43a 42ca 113b d144 283b 0cf9 3a3b
00000010: f4a5 423b 9b27 4f3b 556d 553b b856 643b
00000020: f483 8a3b dcb8 943b f18e 993b 6f0e 943b
00000030: 8c7e 983b 7d73 a23b b5ea a33b b881 a93b
00000040: 1f6f ab3b fa4e b13b 767e b83b 6ce8 bd3b
00000050: 213e c03b 1d35 c33b ba31 c63b 34f2 ca3b
00000060: cd8f cc3b a865 ce3b 981a d43b 7e8f d83b
00000070: d908 dc3b 9dfe dc3b bd93 e03b 85e6 e43b
00000080: 408a e83b 73a2 eb3b a5a9 ef3b 0dcb f93b
00000090: 2102 023c b6d7 073c 5e11 0e3c f050 143c
000000a0: 6cf5 1b3c fd3b 213c 5d84 263c 96f5 2a3c
000000b0: 4c42 2e3c 5e4f 323c 6cd1 343c 2746 373c
000000c0: fbb9 383c b3cd 383c c83e 383c 529d 363c
000000d0: 9eee 343c 28d6 313c 3477 2e3c 220e 2c3c
000000e0: c063 2b3c 6ed3 2d3c e12f 343c 9911 3a3c
000000f0: d2d9 3e3c ac16 423c b4a0 453c 8ee5 473c
00000100: eade 483c 7183 4a3c 99d0 4d3c 4a47 4e3c
00000110: ecea 4e3c 1288 513c e0b4 553c f8e0 593c
00000120: 8c6e 5a3c 792c 5b3c 6f63 5b3c f983 5b3c
00000130: 2473 5c3c 6800 5e3c f2bd 613c b003 683c
00000140: c8ff 6b3c 0d1f 6f3c 0321 703c f1e3 733c
00000150: 7d79 763c 93f4 783c fe87 7b3c 3bf0 7d3c
00000160: 8dc5 833c fc26 8a3c 2b4b 923c 1354 9b3c
00000170: da4a a93c 1c9b be3c a54b d73c 1daa f13c
00000180: d654 063d 4155 113d 0c0d 203d ff3d 2b3d
00000190: f8c2 3b3d 214a 4a3d fc35 5f3d 51e0 723d
000001a0: 9ba1 833d 537a 8c3d 1360 943d f678 9a3d
000001b0: bc47 a03d ff97 a33d 25a0 a13d 2233 b03d
000001c0: 593c bd3d 7c05 c93d 3174 bd3d 10bf b63d
000001d0: 3e02 b43d ce30 b63d 4bb4 b73d 0df4 b63d
000001e0: 7dde b83d db42 b73d 4766 b93d 1384 b93d
000001f0: 47a9 b93d bbab bb3d c193 ba3d b5b9 b83d
00000200: 688f b33d d853 b43d 0238 b43d d0b6 b83d
00000210: f6db b73d f61e bc3d 4d6c bc3d 1991 c13d
00000220: 1a3c c33d d02c c83d 54dc c73d cfa6 cb3d
00000230: 6395 cb3d 0b8e ce3d ade3 cb3d 5e7a cc3d
00000240: 9138 cd3d 76a7 cf3d 42cf ce3d 421c cc3d
00000250: c90f cd3d 21f7 cc3d f85d cf3d 6439 cd3d
00000260: b904 cc3d 2242 c63d 6909 c13d 8e12 b93d
0.0016241998 0.00222458 0.0025675783 0.002852979 0.0029700967 0.00316093 0.0032566388 0.0034841727
0.004227156 0.0045386385 0.0046862294 0.004518322 0.0046537574 0.004957615 0.0050023445 0.0051729344
0.0052317525 0.005411026 0.0056303097 0.005795529 0.0058667813 0.0059572593 0.0060484083 0.0061934236
0.0062427283 0.0062987395 0.006472897 0.0066089025 0.006714922 0.0067442195 0.0068535493 0.006985488
0.007096559 0.0071909963 0.0073139244 0.0076230825 0.007935078 0.008291176 0.008671133 0.0090525
0.009518962 0.0098409625 0.010163394 0.010434529 0.010635924 0.01088318 0.011036258 0.011186159
0.01127481 0.011279511 0.011245437 0.0111459065 0.011043219 0.0108542815 0.010648537 0.010501416
0.010460794 0.010609491 0.010997743 0.011356735 0.011648612 0.011846226 0.01206224 0.012200726
0.012260178 0.01236044 0.012561941 0.012590239 0.012629252 0.012788789 0.013043612 0.013298266
0.0133320205 0.013377302 0.013390406 0.013398164 0.013455186 0.013549902 0.013778197 0.014161035
0.014404245 0.014594805 0.014656308 0.014885888 0.0150436135 0.01519503 0.015352247 0.01549917
0.01608541 0.016864292 0.017858109 0.018960988 0.020665575 0.023267321 0.026281187 0.029500062
0.03279575 0.035481695 0.039074942 0.04180717 0.045840234 0.0493871 0.054494843 0.059295956
0.06427308 0.06859269 0.07244887 0.07542603 0.07826182 0.07987975 0.07891873 0.08603503
0.09240026 0.09815499 0.092506774 0.08923161 0.0878949 0.088960275 0.08969935 0.08933268
0.09026811 0.089482985 0.09052711 0.09058394 0.0906549 0.09163614 0.09110213 0.09019796
0.08767587 0.088050544 0.08799745 0.09019244 0.08977501 0.09185593 0.09200344 0.09451503
0.09532948 0.09774172 0.09758821 0.099439256 0.09940603 0.10085686 0.09955535 0.09984277
0.10020555 0.101393625 0.10098125 0.09966327 0.100127764 0.100080736 0.10125345 0.10020712
0.09961838 0.096805826 0.09425623 0.09036742

exp_avg f4 [27, 156]
00000000: 0945 363a 45f9 113a f9ab 083a 9e0e 063a
00000010: 0136 0e3a 2606 183a ca33 263a d670 2b3a
00000020: 0e73 293a b21e 1c3a 4a5a 1f3a d7ec 333a
00000030: 5f92 393a 029b 433a e651 373a a30d 3e3a
00000040: 6db8 303a d883 2e3a 8391 373a 7046 3f3a
00000050: 42a4 3f3a 56ee 3b3a b42a 3c3a 1a24 3a3a
00000060: 246c 413a 5bcd 403a cd69 4f3a 95a7 503a
00000070: 8e30 5a3a f844 603a c5ed 633a c9c9 623a
00000080: d27e 623a 56af 603a 8d81 5c3a 73d7 603a
00000090: 1d20 663a a5a3 743a 2b54 733a 1a35 693a
000000a0: c07a 683a f5c3 683a 7e2a 693a f6d4 6c3a
000000b0: b5cf 6b3a 07a2 6d3a d62f 6b3a 676b 693a
000000c0: 3d6f 733a 78bc 743a 54f1 7b3a bee9 793a
000000d0: b72f 753a edbc 6c3a 8c05 6d3a 4945 683a
000000e0: e307 6a3a fbe1 603a 94b0 5b3a 39a4 5d3a
000000f0: d1f1 6a3a 785d 6c3a 1dd0 663a 81e0 683a
00000100: e7d0 723a 3d79 773a b1c4 793a b9f0 763a
00000110: b8b9 813a 4d14 863a 2d17 8b3a 2fae 873a
00000120: 851b 873a e22c 8a3a 6364 8c3a 39ef 8f3a
00000130: 6b5d 8e3a aa8c 8f3a 9b61 963a 6a62 9b3a
00000140: df33 a23a b2b6 a03a e945 a03a 584e 9f3a
00000150: e86b a43a 1c84 aa3a c092 b33a 1057 b13a
00000160: 5f65 b03a 3c8a b13a 0b4a b83a 21e2 bd3a
00000170: 01be bb3a 3f34 bc3a 7150 b93a 6966 bc3a
00000180: 8e45 be3a ccc3 be3a 433b bc3a 4022 b23a
00000190: 0de7 b23a e827 af3a 8bbb b13a 15da b63a
000001a0: b49f bc3a ad45 bd3a f6fd c83a ee76 c53a
000001b0: 7fd4 bc3a f693 b63a 6416 b73a 4d42 c63a
000001c0: 4048 e23a 95c6 e73a fb11 ea3a c080 d63a
000001d0: b573 cd3a a818 da3a a5bf d33a 2c94 dd3a
000001e0: f906 ec3a 6628 df3a 2e5c f33a 4d6f d73a
000001f0: 0a16 ea3a 5ee3 e63a fce4 e73a 36ba e43a
00000200: a0e5 c23a 3a9e d43a 52df ba3a 327c e13a
00000210: 2976 c13a 3089 f13a 436c dc3a 5125 063b
00000220: 0b27 e63a 3f3c 073b deab e83a 5d8e 073b
00000230: d908 f33a a50d 053b f13e 003b 3fd5 023b
00000240: c58c 073b 9dad 053b 63b7 123b ed44 063b
00000250: 2a70 0d3b 5d0b fd3a 737f 063b 6fc9 013b
00000260: ce40 0a3b 3dab 103b 199b 093b 54e2 103b
00000270: 472f abba e402 7fba f81b 79ba ba8e 70ba
00000280: 19d5 81ba 9f76 85ba 1ba1 8dba 17d8 91ba
00000290: 3915 97ba b82a 94ba 0d34 96ba 7445 9bba
000002a0: ef70 9fba 6971 a7ba 8f11 a0ba 2c1d a2ba
000002b0: 31fd 9aba 5fe4 99ba 1e5a a1ba 8ede a4ba
000002c0: fd27 a9ba 1863 a8ba 3771 acba 511e afba
000002d0: be40 b5ba acaf b4ba dd1a b9ba 573e baba
000002e0: 541c c1ba 8ea1 c5ba 0b2e c9ba cea3 c6ba
000002f0: 14e1 c4ba 9efa c5ba 3e1c c4ba d88c c9ba
00000300: 95d6 d0ba 9101 d6ba 2f3f daba 50a8 d4ba
00000310: 41cf d8ba b4af d5ba a958 d4ba dd60 d4ba
00000320: 5ac7 d2ba 3a80 d7ba 289f d3ba f480 d1ba
00000330: dc3d d6ba 6113 d7ba a03b dcba cd78 d9ba
00000340: 213c d6ba e1e7 d3ba 346d d0ba dc1b caba
00000350: 247e c8ba 769d c2ba 7581 c6ba accf c5ba
00000360: e7d0 ceba 5c38 cfba 226f cdba b770 d2ba
00000370: 90ce d9ba 76b9 e1ba 3a8b e4ba bc0c e4ba
00000380: 170d e7ba 84ff ebba 279f f0ba 5509 f0ba
00000390: 5499 f1ba acc6 f3ba 3c1c f5ba 383c f6ba
000003a0: f699 f8ba a131 fcba 0f4a 04bb 024c 07bb
000003b0: 28ff 0bbb c373 0bbb 750e 0bbb 2e88 0bbb
000003c0: 6ce2 0ebb 44cb 12bb cd10 17bb 91db 15bb
000003d0: 32b3 17bb e2cd 1abb 2bc6 1fbb bed9 23bb
000003e0: 5d9a 1fbb 53da 1dbb 3241 18bb 29a0 19bb
000003f0: d658 1bbb 83cb 1bbb 72f2 17bb 9437 14bb
0.0006953036 0.0005568455 0.0005213614 0.00051138725 0.00054249173 0.0005799256 0.00063401146 0.0006539946
0.0006463983 0.00059555017 0.0006078823 0.00068636 0.0007079001 0.00074617576 0.00069931 0.0007249957
0.0006741349 0.00066572195 0.0007002579 0.0007296568 0.0007310548 0.00071689987 0.0007177994 0.00071007165
0.000737848 0.0007354819 0.0007912189 0.0007959542 0.0008323275 0.0008555199 0.0008694793 0.0008651284
0.00086401135 0.0008571049 0.00084116386 0.00085770263 0.0008778589 0.0009332246 0.00092822564 0.00088961574
0.0008868389 0.00088792975 0.00088945765 0.0009034419 0.00089954893 0.00090649765 0.00089716667 0.0008904249
0.000928629 0.00093359454 0.0009610851 0.00095334265 0.00093531184 0.00090308377 0.0009041659 0.0008860422
0.0008927567 0.00085785956 0.0008380499 0.0008454952 0.0008962425 0.00090166135 0.0008804815 0.00088835513
0.0009262696 0.0009440368 0.00095279055 0.0009420026 0.0009897267 0.0010229439 0.0010611765 0.0010351593
0.0010307884 0.001054194 0.001071107 0.0010981328 0.0010861581 0.0010951955 0.001147318 0.0011854891
0.0012375078 0.0012261479 0.0012227866 0.0012154086 0.0012544366 0.0013009342 0.0013700351 0.0013529975
0.0013457945 0.0013545225 0.0014060152 0.0014486947 0.0014323593 0.0014358832 0.0014138353 0.0014373782
0.0014516579 0.0014554202 0.0014360923 0.001359053 0.0013649181 0.0013363333 0.001355992 0.0013950492
0.0014390857 0.0014440321 0.0015334475 0.0015065351 0.001440659 0.0013929594 0.0013968465 0.001512596
0.0017263964 0.0017683083 0.0017858142 0.0016365275 0.0015674742 0.0016639428 0.0016155137 0.001690512
0.0018007449 0.001702559 0.00185669 0.0016436368 0.0017859351 0.0017615368 0.0017692144 0.0017450515
0.0014869459 0.0016221472 0.0014257228 0.0017203151 0.0014759946 0.0018427726 0.0016816932 0.002046902
0.0017559243 0.0020635275 0.0017751416 0.002068422 0.0018542066 0.0020302322 0.0019568766 0.001996353
0.002068327 0.002039767 0.002238714 0.002048786 0.0021581748 0.0019305755 0.0020522743 0.0019803902
0.0021095756 0.0022074722 0.0020996986 0.0022107558 -0.0013060354 -0.0009727909 -0.0009502764 -0.00091765414
-0.0009905427 -0.0010182447 -0.001080546 -0.0011127022 -0.0011526711 -0.0011304235 -0.0011459604 -0.001184626
-0.0012164394 -0.0012774888 -0.0012212264 -0.0012368313 -0.0011824724 -0.0011741034 -0.0012310182 -0.0012578533
-0.0012905594 -0.0012846915 -0.0013156299 -0.0013360475 -0.0013828499 -0.0013785264 -0.0014122386 -0.0014209253
-0.0014733174 -0.0015078054 -0.0015348805 -0.0015155019 -0.0015020692 -0.0015104597 -0.001496203 -0.0015377058
-0.0015933091 -0.0016327371 -0.001665091 -0.0016224477 -0.0016541259 -0.0016302974 -0.0016200739 -0.0016203184
-0.001608114 -0.0016441413 -0.0016145455 -0.0015983866 -0.001634534 -0.0016408974 -0.0016802438 -0.0016591788
-0.0016344824 -0.0016167128 -0.0015901686 -0.001541968 -0.0015296382 -0.0014847952 -0.0015144782 -0.0015091798
-0.001577881 -0.0015809643 -0.0015673379 -0.001605532 -0.0016617347 -0.0017221409 -0.0017436512 -0.0017398815
-0.0017627802 -0.0018005227 -0.0018357978 -0.0018313328 -0.0018432536 -0.0018598638 -0.0018700431 -0.0018786257
-0.0018966782 -0.0019240865 -0.0020185744 -0.002064467 -0.0021361802 -0.0021278716 -0.0021218334 -0.0021290886
-0.0021802438 -0.0022398988 -0.0023050786 -0.0022866467 -0.002314758 -0.002362125 -0.0024379592 -0.002500161
-0.0024353482 -0.002408643 -0.0023232219 -0.002344141 -0.0023704073 -0.0023772425 -0.002318528 -0.0022616135

exp_avg_sq f4 [27, 156]
00000000: c799 3736 16e6 1836 50b4 2736 4a81 2c36
00000010: a394 2f36 0f0c 3236 2a33 3636 57eb 3536
00000020: 8dbc 5436 baf8 6136 5f34 6436 6b39 5236
00000030: a19d 5336 1fb9 6336 1e9d 6436 cfe1 6936
00000040: 8c01 6836 ce0b 7036 b868 8036 d324 8936
00000050: 832c 8b36 4cb9 8e36 7723 8f36 7fc1 9436
00000060: de4d 9836 363d 9b36 f818 a236 0298 a836
00000070: fb6b b136 29c1 b136 4e1e bb36 bbb8 c236
00000080: 5347 cd36 cc2f cf36 2c78 d036 9202 df36
00000090: 0335 ec36 5c65 fa36 976f 0137 1e39 0537
000000a0: 3270 0e37 82d7 1137 73d2 1837 0e2b 1c37
000000b0: 2693 1e37 4841 2137 da89 2137 6037 2337
000000c0: bf94 2637 9f15 2837 fd07 2b37 4d48 2937
000000d0: 6033 2837 805c 2337 4fed 1f37 46d2 1b37
000000e0: 2a83 1837 c36e 1a37 e501 2437 0654 2f37
000000f0: 29bc 3537 0736 3737 bc2e 3937 2e9a 3c37
00000100: e77a 3f37 d390 4637 9f2f 5237 b79e 5837
00000110: af4d 5f37 7603 6637 c4c9 6e37 d28f 7637
00000120: 36a3 7937 9530 7d37 d4d2 8037 0750 8237
00000130: 5a52 8637 41e1 8a37 a41e 9037 e866 9737
00000140: d25c 9c37 415c a337 1104 a637 4b5e aa37
00000150: 6613 af37 a7cd b537 147b bd37 38ae c137
00000160: fbf0 ca37 6839 d537 1d25 dd37 6537 e137
00000170: 367a e337 96f0 f137 7641 0138 2dfd 0b38
00000180: db52 1538 905e 1938 2795 2438 0f24 2938
00000190: 5faa 3738 8c1c 4338 d872 5d38 45b9 7738
000001a0: 0bc9 8b38 6b05 9a38 992c a838 ed56 b238
000001b0: cf2a bb38 ec9f c038 d1f6 b938 98cb dc38
000001c0: d694 0139 414e 1239 18de 0239 fb8c ef38
000001d0: 88fc e738 fb2f ee38 aede ef38 0946 ef38
000001e0: ed7f f338 e7c7 f038 5817 f838 1018 f738
000001f0: ace6 fa38 d761 fd38 5cda fc38 e1b5 f338
00000200: 7194 e738 68dd e838 f8ef ea38 1d6e f638
00000210: e768 f538 c26c 0139 8227 0239 7f4b 0939
00000220: 48ee 0939 a967 1039 fa5b 0f39 aed1 1439
00000230: 90f5 1539 5a69 1839 da3b 1739 a094 1439
00000240: 983c 1a39 8a09 1939 fb37 1b39 de94 1539
00000250: 360b 1739 7da8 1839 d505 1739 3bd3 1839
00000260: 3506 1339 81d6 1239 2bf2 0b39 97c3 1139
00000270: b955 c839 c808 c639 f4af f939 b987 193a
00000280: 8e67 193a 8f74 193a 946b 193a 2dcd 233a
00000290: 959c 683a 822b 813a a13b 753a 7635 503a
000002a0: b922 5c3a dbcc 873a dbc4 8e3a baea 9c3a
000002b0: 2b2d a43a 593e b33a c5f9 c23a 9f95 d33a
000002c0: 2430 dc3a adf9 e43a 5cff ed3a 41d3 ed3a
000002d0: 74e9 f63a 59b4 ed3a 30de ff3a c44f 0e3b
000002e0: 9f3b 1d3b 437b 223b 0696 323b 5865 433b
000002f0: c709 5b3b 7e04 613b 1ca9 6d3b 6121 873b
00000300: 65ed 943b 0dc6 9f3b c330 a73b 0eef aa3b
00000310: 758a be3b e5a5 c63b 94f2 ce3b 94e6 ce3b
00000320: b318 d33b 3e68 d73b 3073 d73b ec78 d73b
00000330: da63 d73b 63ba db3b ccaf db3b f97b d73b
00000340: d73e d33b 39b5 c23b ecc2 b63b 7c22 ab3b
00000350: 8301 a03b 0c21 953b d718 953b 320e 953b
00000360: 9290 913b 2fe7 833b 0340 743b 7486 673b
00000370: 7559 613b e786 613b 5862 5b3b f272 553b
00000380: 634a 4f3b e054 5b3b 42b4 673b 4118 6e3b
00000390: 81f8 673b e4a6 5b3b c1a6 4f3b 58ff 433b
000003a0: 9803 443b 2b15 443b f66a 3e3b 79dd 383b
000003b0: 008b 283b 4643 1e3b 4878 0f3b 88dc 053b
000003c0: d5ed 053b 46c2 0a3b deac 143b 9023 243b
000003d0: 1e6a 3f3b 6ab3 563b 2fc9 623b 9598 5c3b
000003e0: 70b2 4a3b 6355 3f3b a155 343b 664c 243b
000003f0: ed2e 0b3b 71fc d63a 8d34 af3a d990 8b3a
2.7358635e-06 2.2783693e-06 2.4989895e-06 2.5705253e-06 2.616355e-06 2.6531086e-06 2.7149895e-06 2.7108088e-06
3.1700213e-06 3.367239e-06 3.4005132e-06 3.132586e-06 3.1533202e-06 3.393339e-06 3.4066102e-06 3.4851143e-06
3.4571594e-06 3.5769658e-06 3.826888e-06 4.087205e-06 4.1477047e-06 4.253501e-06 4.2658608e-06 4.4332696e-06
4.539018e-06 4.626486e-06 4.830883e-06 5.024486e-06 5.2875816e-06 5.297498e-06 5.576562e-06 5.803156e-06
6.1177793e-06 6.174645e-06 6.212873e-06 6.646217e-06 7.0395195e-06 7.4623804e-06 7.714981e-06 7.940716e-06
8.489982e-06 8.69285e-06 9.108905e-06 9.308349e-06 9.4517945e-06 9.611547e-06 9.628444e-06 9.72845e-06
9.929004e-06 1.0018614e-05 1.0194254e-05 1.0090019e-05 1.0025542e-05 9.737094e-06 9.532391e-06 9.287678e-06
9.090445e-06 9.204904e-06 9.775603e-06 1.0450376e-05 1.083225e-05 1.0920229e-05 1.10377405e-05 1.1241571e-05
1.1413103e-05 1.1835439e-05 1.2528063e-05 1.2911557e-05 1.3309923e-05 1.3709874e-05 1.4232883e-05 1.4696228e-05
1.4879557e-05 1.50912865e-05 1.5356964e-05 1.5534473e-05 1.6012393e-05 1.6555774e-05 1.7180406e-05 1.8048522e-05
1.8639872e-05 1.9474073e-05 1.9790636e-05 2.0309488e-05 2.0870659e-05 2.1672646e-05 2.2587868e-05 2.308852e-05
2.4192492e-05 2.541831e-05 2.6362535e-05 2.6847885e-05 2.7117418e-05 2.884147e-05 3.0816962e-05 3.337597e-05
3.5601533e-05 3.656611e-05 3.9239556e-05 4.0326322e-05 4.378927e-05 4.651821e-05 5.2797463e-05 5.9061935e-05
6.665484e-05 7.3443014e-05 8.019171e-05 8.5038926e-05 8.9248286e-05 9.185061e-05 8.8674606e-05 0.0001052834
0.00012357844 0.00013952797 0.00012480502 0.00011422668 0.00011061976 0.000113576614 0.000114378854 0.00011409453
0.00011610971 0.000114813265 0.000118299096 0.0001178236 0.00011963895 0.00012082204 0.00012056969 0.000116210205
0.00011042588 0.00011103862 0.00011202687 0.00011750704 0.0001170205 0.00012342914 0.00012412484 0.00013093463
0.00013154105 0.00013771527 0.00013671807 0.00014192492 0.00014301226 0.00014535096 0.00014422779 0.00014169747
0.00014709157 0.0001459477 0.00014802806 0.00014265205 0.00014404659 0.00014558616 0.00014402655 0.00014574539
0.00014021325 0.00014003554 0.00013346288 0.0001390114 0.0003821084 0.00037772045 0.00047624076 0.0005856711
0.00058519177 0.00058538554 0.0005852517 0.000624853 0.000887343 0.0009854885 0.00093548937 0.00079425366
0.0008397508 0.0010360734 0.0010892408 0.001197181 0.0012525668 0.0013675197 0.0014875463 0.0016142613
0.0016799015 0.0017469429 0.0018157768 0.0018144624 0.0018837885 0.0018135413 0.0019521173 0.0021715024
0.0023991836 0.0024792708 0.0027250065 0.0029815044 0.0033422576 0.0034334953 0.0036264127 0.004123852
0.004544901 0.0048759044 0.0051022484 0.005216486 0.005814845 0.0060622566 0.0063155387 0.006314108
0.0064421534 0.006573706 0.0065750107 0.0065756943 0.0065731825 0.0067055686 0.006704306 0.006576058
0.0064467 0.0059420136 0.0055774357 0.0052226167 0.0048829927 0.0045510586 0.0045500803 0.0045488114
0.004442283 0.004025362 0.00372696 0.0035327943 0.0034385596 0.0034412683 0.0033475365 0.0032569733
0.0031630031 0.0033467337 0.0035355245 0.0036330374 0.0035395923 0.0033516223 0.0031685086 0.0029906835
0.0029909369 0.0029919844 0.0029055453 0.002820818 0.0025717616 0.0024148985 0.0021891762 0.0020425636
0.0020435948 0.0021172925 0.0022686045 0.002504561 0.0029207538 0.0032760748 0.0034604778 0.0033660282
0.003092911 0.0029195182 0.002751686 0.002506995 0.0021237687 0.0016402138 0.0013367102 0.0010648026

exp_avg f4 [27]
00000000: ab90 2dba 54ca a6ba 7133 beba ec3f 293a
00000010: cc6c 423e 346a c6b9 1d14 32ba 947e e03a
00000020: e8fb c4ba 2494 ccb8 57e8 943a 82aa d5ba
00000030: 571e 72ba 27e9 7639 a4ab 313e 9f12 f9b9
00000040: b5c1 cb3a 9801 3437 f5e6 0438 dbca 43bb
00000050: babd 21bb a6d6 c83a a3a9 cc3a cbed 9dba
00000060: 7245 3539 dbd6 58ba 7f41 de38
-0.00066209835 -0.0012725093 -0.001451118 0.00064563635 0.18986815 -0.0003784463 -0.0006793158 0.0017127567
-0.0015028687 -9.7550714e-05 0.0011360747 -0.0016301426 -0.00092360884 0.00023547244 0.17350632 -0.00047506855
0.00155454 1.0729207e-05 3.1686348e-05 -0.002987555 -0.0024679736 0.0015322759 0.001561452 -0.0012049017
0.00017287376 -0.0008271762 0.000105979845

exp_avg_sq f4 [27]
00000000: 22c7 713a 56df a13f a006 ce39 5503 b53b
00000010: 011b 803f a127 5b3e 8be4 f53d 2e8c 693c
00000020: 130e 1a3a 14f0 3539 d8a8 b941 7264 de3e
00000030: d670 f739 cdf8 683a 80d9 5540 4496 413f
00000040: bf99 db40 728b 4039 881f 643a ee85 393a
00000050: 3587 d83f 90c8 303a 9560 273e 542d 0a3f
00000060: 1add 5f3f 7618 a13e 2d83 8b3a
0.00092230935 1.2646282 0.00039296318 0.005524079 1.0008241 0.21401836 0.12006482 0.014254613
0.0005876731 0.00017350941 23.207443 0.4343601 0.0004719558 0.0008887172 3.3414001 0.7561991
6.862518 0.00018362494 0.0008702208 0.0007077147 1.6916262 0.00067437533 0.16345437 0.53975415
0.8744675 0.31463975 0.0010643952

exp_avg f4 [18, 27]
00000000: d422 38bc 113a 41bc d4db 79ba f057 46bb
00000010: e100 203e eaa6 bebc f4f7 2f3b b62c 1abc
00000020: 1848 c9bc 07a7 ddbb 464d a0ba f904 ddbb
00000030: 447a 69bc a60d 06bb 4028 0cbd 63e7 da39
00000040: 82a4 143b 7e19 f7ba fd58 afbc 9e60 08bc
00000050: 1963 e5ba e729 e9bb a8bd 96bc c398 6c39
00000060: ed98 b73a 93b5 12bb caaa 1dbd 5108 b1bb
00000070: 9c90 b0bb e48d 53ba 15c8 e1ba 46e5 653d
00000080: 7678 15bc a7cb 1e3a 88ba 83bb edfd 27bc
00000090: 598c 35bb 22e4 a1ba 42ca 5ebb 5c9a c5bb
000000a0: 0ff5 5bba c78f 7ab8 58f5 72ba da09 90b9
000000b0: 6205 3bba 27b6 0abc 7a37 66bb 2559 6bba
000000c0: be43 52bb d40b f5bb 0faf 02ba eaf7 28ba
000000d0: 16e4 a2ba 4e7e 80bc 3826 163d d643 c23c
000000e0: 5d85 4c3c 846d 873c c8fc aebe 1b09 d03c
000000f0: dd0d 123c 02c0 813c 655e f13c 924b 4b3c
00000100: 9f89 673c a2df cc3c 2ed8 9a3c 07a7 bf3b
00000110: 1145 42be 0bf4 e73c 5284 963c 54bc dc3a
00000120: 640c ba3c e327 4a3c 4037 f13b 2266 953c
00000130: 1d54 d93c db9d 393c 34a4 ad3c 4dfa 0f3c
00000140: 63a7 6d3d 16bf c33c 4d1d 843c f6d3 1b3c
00000150: 3032 383c c838 87be 3295 453c 918b ee3b
00000160: 2434 153c c83b 9b3c 70af db3b 59e7 2d3c
00000170: 7fcb 8e3c 9fb0 423c c3b5 743b 0b9b 78be
00000180: df9c ae3c 3a8a 7e3c a0d3 b63a 5c28 443c
00000190: 9422 023c 27be af3b 56d2 413c eea5 723c
000001a0: 7f89 233c e610 8b3c 1e74 e13b 088c 073d
000001b0: 17c2 9238 c6d8 5e39 08ed 0bb9 6aae 87b8
000001c0: 35cd e3ba 454f 533a 5c0d 7fb9 2645 8439
000001d0: f382 363a 286d 3d39 23c1 0eb9 caf5 b1b7
000001e0: 1cca cb39 3a40 bf37 80fc d53b 111a d0b9
000001f0: c944 c6b9 bb16 5438 9a94 393a 1e87 5b39
00000200: 93eb b2b7 e73a d238 3128 0e3a ca48 52b9
00000210: d89a bfb9 77b5 06b8 9725 8e3a e718 cdbb
00000220: 0d43 25bc b4b4 6c3b 9520 373a 1339 cc3d
00000230: b5fb 02bd 205b 023c a5c9 30bc fdc0 e7bc
00000240: 302d 00bc fcda 683b 6076 e5ba 114a 83bc
00000250: 2e44 b8ba cd7e 67be 70fc 3d3c d399 433c
00000260: 6b57 01bb 14bd e5bc 5d1b 11bc edca 2e38
00000270: 5807 b3bb 6ad2 b7bc 36b9 cb3b ab70 373c
00000280: 8fd3 a939 efd8 39bd 1e7c 9aba fee9 d8ba
00000290: 78bd 8f39 e6fa 18b9 2be8 573d 1de3 84bb
000002a0: b220 743a fd20 cdba 88f2 6ebb 1e62 a3ba
000002b0: 78c2 a139 5f30 fdb9 39a5 0abb 3fd0 fab9
000002c0: 9122 a83b 84af 8f3a f72a a63a f089 23ba
000002d0: 6817 84bb c59d 97ba 895c 3fb9 2bb1 a5ba
000002e0: 9524 4fbb 1aba c839 8861 963a 6198 9cb9
000002f0: 1372 d0bb 5f78 033c 6d52 f1ba 2eb6 103c
00000300: 5862 f53b 2b6d 9cbc 03c2 c9bc 8230 4a3c
00000310: e3a1 afbb dac7 a3bc 54dc 5ebb 61bd 1b3c
00000320: 8856 033c 1a12 2abc f38c 613a e5f4 93be
00000330: 991f c53c 3b53 a63c 8687 d0ba f206 b2bc
00000340: ae5f a3bb 6208 423b e707 b93a 7121 62bc
00000350: 1276 353c 1338 a93c c0a2 743b 5bd0 d7bc
00000360: 8613 7dbd 44ed 6ebd e2c3 04bc 4be1 9bbc
00000370: 800f 443f 83d3 e1bd 5f50 0a3c 5970 3ebd
00000380: b954 eabd 2f71 0bbd 3313 24bc 45ed 19bd
00000390: e98b 89bd 4dae 32bc 323b 1bbe c5bc 02bc
000003a0: 3247 833b 9cbd 07bc 05f4 ccbd 2f8e 22bd
000003b0: 5f07 23bc e601 18bd 8094 b6bd 72e7 00bb
000003c0: ab9b 66ba 5814 47bc 3b70 3fbe 6f05 4e3a
000003d0: bba2 5b3a 222c 4339 ef0c b239 4f5d a0bb
000003e0: 384c 8c3a d2c4 20b8 122c 143a be45 b23a
000003f0: d166 f639 60f0 7639 eb8b ff39 ab23 633a
-0.011238772 -0.011793629 -0.0009531353 -0.0030264817 0.15625335 -0.02327295 0.0026850672 -0.009410074
-0.02457051 -0.006764296 -0.001223006 -0.0067449776 -0.014250342 -0.0020454912 -0.034218073 0.00041752597
0.0022681062 -0.0018852202 -0.021404738 -0.008323817 -0.0017500847 -0.007115591 -0.018400982 0.00022563622
0.0014007367 -0.0022386059 -0.038492955 -0.0054026027 -0.0053883325 -0.00080701546 -0.0017225767 0.056126855
-0.009122958 0.0006057568 -0.004020039 -0.010253412 -0.0027702062 -0.0012351314 -0.0033995067 -0.006030364
-0.00083907036 -5.9738548e-05 -0.00092681265 -0.0002747316 -0.0007134286 -0.00846628 -0.0035128281 -0.0008977822
-0.0032083835 -0.0074782167 -0.0004985192 -0.00064456335 -0.0012427594 -0.015685227 0.036657542 0.023713987
0.012482968 0.016531713 -0.34177232 0.025394967 0.008914438 0.015838627 0.029463956 0.012408154
0.0141319325 0.02500898 0.01890191 0.0058487686 -0.18971659 0.028314611 0.018373642 0.0016840794
0.022710986 0.012338611 0.0073613226 0.018237177 0.026529366 0.01132914 0.021196462 0.008787704
0.05802096 0.023894828 0.016127253 0.009510985 0.011242434 -0.26410508 0.012059497 0.007279821
0.00910667 0.018949404 0.0067042634 0.01061424 0.017431019 0.01188293 0.0037339784 -0.24277894
0.021315036 0.0155358855 0.0013948567 0.011972513 0.007942814 0.005363244 0.011829933 0.0148100685
0.009981512 0.016975831 0.0068802973 0.03309253 6.9979746e-05 0.00021252324 -0.00013344374 -6.469789e-05
-0.0017379882 0.00080608233 -0.00024323672 0.00025228522 0.0006962262 0.00018065108 -0.00013614124 -2.1214499e-05
0.0003886976 2.2798882e-05 0.0065303445 -0.00039692273 -0.00037816752 5.0565908e-05 0.00070793333 0.00020935803
-2.1328951e-05 0.00010024552 0.0005422859 -0.00020054277 -0.00036545726 -3.2117092e-05 0.0010844943 -0.006259072
-0.010086787 0.003611845 0.0006985751 0.099718235 -0.031978328 0.007956296 -0.010790263 -0.028290266
-0.007823274 0.0035530915 -0.0017506592 -0.016026529 -0.0014058405 -0.22606964 0.01159583 0.01193853
-0.0019735943 -0.028044261 -0.008856622 4.1673822e-05 -0.005463522 -0.0224392 0.006217147 0.011196296
0.00032391815 -0.0453729 -0.0011786257 -0.0016549227 0.0002741625 -0.00014589317 0.052711647 -0.0040553943
0.00093127333 -0.001565009 -0.0036460478 -0.0012465154 0.00030853203 -0.0004829196 -0.002115561 -0.0004783887
0.0051310738 0.0010962342 0.00126776 -0.0006238511 -0.0040311106 -0.0011567405 -0.00018249651 -0.0012641301
-0.0031607498 0.0003828563 0.0011473158 -0.0002986817 -0.006361255 0.008024304 -0.0018411406 0.0088324975
0.00748853 -0.019095024 -0.024628645 0.012340667 -0.0053598746 -0.019992758 -0.0034005838 0.009505601
0.008016236 -0.010380292 0.0008604072 -0.28897777 0.024062918 0.02030336 -0.001590953 -0.021731827
-0.004985771 0.0029607047 0.0014116735 -0.013801918 0.011075513 0.020656621 0.0037328452 -0.026344469
-0.061786197 -0.058331743 -0.008103343 -0.019028326 0.7658615 -0.11026671 0.0084420135 -0.04649386
-0.11441941 -0.034043487 -0.010014343 -0.037579793 -0.06716139 -0.010905814 -0.151593 -0.0079795765
0.00400629 -0.0082849525 -0.100074805 -0.039686378 -0.009950488 -0.037111185 -0.08915043 -0.0019669202
-0.0008797 -0.012150846 -0.18695156 0.0007859086 0.0008378436 0.0001861309 0.00033960442 -0.0048939358
0.0010703867 -3.8330276e-05 0.0005652319 0.0013601107 0.0004699738 0.00023549935 0.00048741637 0.0008664678
